…
clip_grad: 	None	
clip_mode: 	norm	
early_stop_epoch: 	-1	
no_display_method_info: 	False	
sched: 	onecycle	
lr: 	0.001	
lr_k_decay: 	1.0	
warmup_lr: 	1e-05	
min_lr: 	1e-06	
final_div_factor: 	10000.0	
warmup_epoch: 	0	
decay_epoch: 	100	
decay_rate: 	0.1	
filter_bias_and_bn: 	False	
spatio_kernel_enc: 	3	
spatio_kernel_dec: 	3	
hid_S: 	64	
hid_T: 	512	
N_T: 	8	
N_S: 	4	
in_shape: 	[11, 3, 160, 240]	
metrics: 	['mse', 'mae', 'ssim']	
Model info:
DistributedDataParallel(
  (module): SimVP_Model(
    (enc): Encoder(
      (enc): Sequential(
        (0): ConvSC(
          (conv): BasicConv2d(
            (conv): Conv2d(3, 64, kernel_size=(3, 3), stride=(1, 1), padding=(1, 1))
            (norm): GroupNorm(2, 64, eps=1e-05, affine=True)
            (act): SiLU()
          )
        )
        (1): ConvSC(
          (conv): BasicConv2d(
            (conv): Conv2d(64, 64, kernel_size=(3, 3), stride=(2, 2), padding=(1, 1))
            (norm): GroupNorm(2, 64, eps=1e-05, affine=True)
            (act): SiLU()
          )
        )
        (2): ConvSC(
          (conv): BasicConv2d(
            (conv): Conv2d(64, 64, kernel_size=(3, 3), stride=(1, 1), padding=(1, 1))
            (norm): GroupNorm(2, 64, eps=1e-05, affine=True)
            (act): SiLU()
          )
        )
        (3): ConvSC(
          (conv): BasicConv2d(
            (conv): Conv2d(64, 64, kernel_size=(3, 3), stride=(2, 2), padding=(1, 1))
            (norm): GroupNorm(2, 64, eps=1e-05, affine=True)
            (act): SiLU()
          )
        )
      )
    )
    (dec): Decoder(
      (dec): Sequential(
        (0): ConvSC(
          (conv): BasicConv2d(
            (conv): Sequential(
              (0): Conv2d(64, 256, kernel_size=(3, 3), stride=(1, 1), padding=(1, 1))
              (1): PixelShuffle(upscale_factor=2)
            )
            (norm): GroupNorm(2, 64, eps=1e-05, affine=True)
            (act): SiLU()
          )
        )
        (1): ConvSC(
          (conv): BasicConv2d(
            (conv): Conv2d(64, 64, kernel_size=(3, 3), stride=(1, 1), padding=(1, 1))
            (norm): GroupNorm(2, 64, eps=1e-05, affine=True)
            (act): SiLU()
          )
        )
        (2): ConvSC(
          (conv): BasicConv2d(
            (conv): Sequential(
              (0): Conv2d(64, 256, kernel_size=(3, 3), stride=(1, 1), padding=(1, 1))
              (1): PixelShuffle(upscale_factor=2)
            )
            (norm): GroupNorm(2, 64, eps=1e-05, affine=True)
            (act): SiLU()
          )
        )
        (3): ConvSC(
          (conv): BasicConv2d(
            (conv): Conv2d(64, 64, kernel_size=(3, 3), stride=(1, 1), padding=(1, 1))
            (norm): GroupNorm(2, 64, eps=1e-05, affine=True)
            (act): SiLU()
          )
        )
      )
      (readout): Conv2d(64, 3, kernel_size=(1, 1), stride=(1, 1))
    )
    (hid): MidMetaNet(
      (enc): Sequential(
        (0): MetaBlock(
          (block): GASubBlock(
            (norm1): BatchNorm2d(704, eps=1e-05, momentum=0.1, affine=True, track_running_stats=True)
            (attn): SpatialAttention(
              (proj_1): Conv2d(704, 704, kernel_size=(1, 1), stride=(1, 1))
              (activation): GELU(approximate='none')
              (spatial_gating_unit): AttentionModule(
                (conv0): Conv2d(704, 704, kernel_size=(5, 5), stride=(1, 1), padding=(2, 2), groups=704)
                (conv_spatial): Conv2d(704, 704, kernel_size=(7, 7), stride=(1, 1), padding=(9, 9), dilation=(3, 3), groups=704)
                (conv1): Conv2d(704, 1408, kernel_size=(1, 1), stride=(1, 1))
              )
              (proj_2): Conv2d(704, 704, kernel_size=(1, 1), stride=(1, 1))
            )
            (drop_path): DropPath(drop_prob=0.010)
            (norm2): BatchNorm2d(704, eps=1e-05, momentum=0.1, affine=True, track_running_stats=True)
            (mlp): MixMlp(
              (fc1): Conv2d(704, 5632, kernel_size=(1, 1), stride=(1, 1))
              (dwconv): DWConv(
                (dwconv): Conv2d(5632, 5632, kernel_size=(3, 3), stride=(1, 1), padding=(1, 1), groups=5632)
              )
              (act): GELU(approximate='none')
              (fc2): Conv2d(5632, 704, kernel_size=(1, 1), stride=(1, 1))
              (drop): Dropout(p=0.0, inplace=False)
            )
          )
          (reduction): Conv2d(704, 512, kernel_size=(1, 1), stride=(1, 1))
        )
        (1): MetaBlock(
          (block): GASubBlock(
            (norm1): BatchNorm2d(512, eps=1e-05, momentum=0.1, affine=True, track_running_stats=True)
            (attn): SpatialAttention(
              (proj_1): Conv2d(512, 512, kernel_size=(1, 1), stride=(1, 1))
              (activation): GELU(approximate='none')
              (spatial_gating_unit): AttentionModule(
                (conv0): Conv2d(512, 512, kernel_size=(5, 5), stride=(1, 1), padding=(2, 2), groups=512)
                (conv_spatial): Conv2d(512, 512, kernel_size=(7, 7), stride=(1, 1), padding=(9, 9), dilation=(3, 3), groups=512)
                (conv1): Conv2d(512, 1024, kernel_size=(1, 1), stride=(1, 1))
              )
              (proj_2): Conv2d(512, 512, kernel_size=(1, 1), stride=(1, 1))
            )
            (drop_path): DropPath(drop_prob=0.009)
            (norm2): BatchNorm2d(512, eps=1e-05, momentum=0.1, affine=True, track_running_stats=True)
            (mlp): MixMlp(
              (fc1): Conv2d(512, 4096, kernel_size=(1, 1), stride=(1, 1))
              (dwconv): DWConv(
                (dwconv): Conv2d(4096, 4096, kernel_size=(3, 3), stride=(1, 1), padding=(1, 1), groups=4096)
              )
              (act): GELU(approximate='none')
              (fc2): Conv2d(4096, 512, kernel_size=(1, 1), stride=(1, 1))
              (drop): Dropout(p=0.0, inplace=False)
            )
          )
        )
        (2): MetaBlock(
          (block): GASubBlock(
            (norm1): BatchNorm2d(512, eps=1e-05, momentum=0.1, affine=True, track_running_stats=True)
            (attn): SpatialAttention(
              (proj_1): Conv2d(512, 512, kernel_size=(1, 1), stride=(1, 1))
              (activation): GELU(approximate='none')
              (spatial_gating_unit): AttentionModule(
                (conv0): Conv2d(512, 512, kernel_size=(5, 5), stride=(1, 1), padding=(2, 2), groups=512)
                (conv_spatial): Conv2d(512, 512, kernel_size=(7, 7), stride=(1, 1), padding=(9, 9), dilation=(3, 3), groups=512)
                (conv1): Conv2d(512, 1024, kernel_size=(1, 1), stride=(1, 1))
              )
              (proj_2): Conv2d(512, 512, kernel_size=(1, 1), stride=(1, 1))
            )
            (drop_path): DropPath(drop_prob=0.007)
            (norm2): BatchNorm2d(512, eps=1e-05, momentum=0.1, affine=True, track_running_stats=True)
            (mlp): MixMlp(
              (fc1): Conv2d(512, 4096, kernel_size=(1, 1), stride=(1, 1))
              (dwconv): DWConv(
                (dwconv): Conv2d(4096, 4096, kernel_size=(3, 3), stride=(1, 1), padding=(1, 1), groups=4096)
              )
              (act): GELU(approximate='none')
              (fc2): Conv2d(4096, 512, kernel_size=(1, 1), stride=(1, 1))
              (drop): Dropout(p=0.0, inplace=False)
            )
          )
        )
        (3): MetaBlock(
          (block): GASubBlock(
            (norm1): BatchNorm2d(512, eps=1e-05, momentum=0.1, affine=True, track_running_stats=True)
            (attn): SpatialAttention(
              (proj_1): Conv2d(512, 512, kernel_size=(1, 1), stride=(1, 1))
              (activation): GELU(approximate='none')
              (spatial_gating_unit): AttentionModule(
                (conv0): Conv2d(512, 512, kernel_size=(5, 5), stride=(1, 1), padding=(2, 2), groups=512)
                (conv_spatial): Conv2d(512, 512, kernel_size=(7, 7), stride=(1, 1), padding=(9, 9), dilation=(3, 3), groups=512)
                (conv1): Conv2d(512, 1024, kernel_size=(1, 1), stride=(1, 1))
              )
              (proj_2): Conv2d(512, 512, kernel_size=(1, 1), stride=(1, 1))
            )
            (drop_path): DropPath(drop_prob=0.006)
            (norm2): BatchNorm2d(512, eps=1e-05, momentum=0.1, affine=True, track_running_stats=True)
            (mlp): MixMlp(
              (fc1): Conv2d(512, 4096, kernel_size=(1, 1), stride=(1, 1))
              (dwconv): DWConv(
                (dwconv): Conv2d(4096, 4096, kernel_size=(3, 3), stride=(1, 1), padding=(1, 1), groups=4096)
              )
              (act): GELU(approximate='none')
              (fc2): Conv2d(4096, 512, kernel_size=(1, 1), stride=(1, 1))
              (drop): Dropout(p=0.0, inplace=False)
            )
          )
        )
        (4): MetaBlock(
          (block): GASubBlock(
            (norm1): BatchNorm2d(512, eps=1e-05, momentum=0.1, affine=True, track_running_stats=True)
            (attn): SpatialAttention(
              (proj_1): Conv2d(512, 512, kernel_size=(1, 1), stride=(1, 1))
              (activation): GELU(approximate='none')
              (spatial_gating_unit): AttentionModule(
                (conv0): Conv2d(512, 512, kernel_size=(5, 5), stride=(1, 1), padding=(2, 2), groups=512)
                (conv_spatial): Conv2d(512, 512, kernel_size=(7, 7), stride=(1, 1), padding=(9, 9), dilation=(3, 3), groups=512)
                (conv1): Conv2d(512, 1024, kernel_size=(1, 1), stride=(1, 1))
              )
              (proj_2): Conv2d(512, 512, kernel_size=(1, 1), stride=(1, 1))
            )
            (drop_path): DropPath(drop_prob=0.004)
            (norm2): BatchNorm2d(512, eps=1e-05, momentum=0.1, affine=True, track_running_stats=True)
            (mlp): MixMlp(
              (fc1): Conv2d(512, 4096, kernel_size=(1, 1), stride=(1, 1))
              (dwconv): DWConv(
                (dwconv): Conv2d(4096, 4096, kernel_size=(3, 3), stride=(1, 1), padding=(1, 1), groups=4096)
              )
              (act): GELU(approximate='none')
              (fc2): Conv2d(4096, 512, kernel_size=(1, 1), stride=(1, 1))
              (drop): Dropout(p=0.0, inplace=False)
            )
          )
        )
        (5): MetaBlock(
          (block): GASubBlock(
            (norm1): BatchNorm2d(512, eps=1e-05, momentum=0.1, affine=True, track_running_stats=True)
            (attn): SpatialAttention(
              (proj_1): Conv2d(512, 512, kernel_size=(1, 1), stride=(1, 1))
              (activation): GELU(approximate='none')
              (spatial_gating_unit): AttentionModule(
                (conv0): Conv2d(512, 512, kernel_size=(5, 5), stride=(1, 1), padding=(2, 2), groups=512)
                (conv_spatial): Conv2d(512, 512, kernel_size=(7, 7), stride=(1, 1), padding=(9, 9), dilation=(3, 3), groups=512)
                (conv1): Conv2d(512, 1024, kernel_size=(1, 1), stride=(1, 1))
              )
              (proj_2): Conv2d(512, 512, kernel_size=(1, 1), stride=(1, 1))
            )
            (drop_path): DropPath(drop_prob=0.003)
            (norm2): BatchNorm2d(512, eps=1e-05, momentum=0.1, affine=True, track_running_stats=True)
            (mlp): MixMlp(
              (fc1): Conv2d(512, 4096, kernel_size=(1, 1), stride=(1, 1))
              (dwconv): DWConv(
                (dwconv): Conv2d(4096, 4096, kernel_size=(3, 3), stride=(1, 1), padding=(1, 1), groups=4096)
              )
              (act): GELU(approximate='none')
              (fc2): Conv2d(4096, 512, kernel_size=(1, 1), stride=(1, 1))
              (drop): Dropout(p=0.0, inplace=False)
            )
          )
        )
        (6): MetaBlock(
          (block): GASubBlock(
            (norm1): BatchNorm2d(512, eps=1e-05, momentum=0.1, affine=True, track_running_stats=True)
            (attn): SpatialAttention(
              (proj_1): Conv2d(512, 512, kernel_size=(1, 1), stride=(1, 1))
              (activation): GELU(approximate='none')
              (spatial_gating_unit): AttentionModule(
                (conv0): Conv2d(512, 512, kernel_size=(5, 5), stride=(1, 1), padding=(2, 2), groups=512)
                (conv_spatial): Conv2d(512, 512, kernel_size=(7, 7), stride=(1, 1), padding=(9, 9), dilation=(3, 3), groups=512)
                (conv1): Conv2d(512, 1024, kernel_size=(1, 1), stride=(1, 1))
              )
              (proj_2): Conv2d(512, 512, kernel_size=(1, 1), stride=(1, 1))
            )
            (drop_path): DropPath(drop_prob=0.001)
            (norm2): BatchNorm2d(512, eps=1e-05, momentum=0.1, affine=True, track_running_stats=True)
            (mlp): MixMlp(
              (fc1): Conv2d(512, 4096, kernel_size=(1, 1), stride=(1, 1))
              (dwconv): DWConv(
                (dwconv): Conv2d(4096, 4096, kernel_size=(3, 3), stride=(1, 1), padding=(1, 1), groups=4096)
              )
              (act): GELU(approximate='none')
              (fc2): Conv2d(4096, 512, kernel_size=(1, 1), stride=(1, 1))
              (drop): Dropout(p=0.0, inplace=False)
            )
          )
        )
        (7): MetaBlock(
          (block): GASubBlock(
            (norm1): BatchNorm2d(512, eps=1e-05, momentum=0.1, affine=True, track_running_stats=True)
            (attn): SpatialAttention(
              (proj_1): Conv2d(512, 512, kernel_size=(1, 1), stride=(1, 1))
              (activation): GELU(approximate='none')
              (spatial_gating_unit): AttentionModule(
                (conv0): Conv2d(512, 512, kernel_size=(5, 5), stride=(1, 1), padding=(2, 2), groups=512)
                (conv_spatial): Conv2d(512, 512, kernel_size=(7, 7), stride=(1, 1), padding=(9, 9), dilation=(3, 3), groups=512)
                (conv1): Conv2d(512, 1024, kernel_size=(1, 1), stride=(1, 1))
              )
              (proj_2): Conv2d(512, 512, kernel_size=(1, 1), stride=(1, 1))
            )
            (drop_path): Identity()
            (norm2): BatchNorm2d(512, eps=1e-05, momentum=0.1, affine=True, track_running_stats=True)
            (mlp): MixMlp(
              (fc1): Conv2d(512, 4096, kernel_size=(1, 1), stride=(1, 1))
              (dwconv): DWConv(
                (dwconv): Conv2d(4096, 4096, kernel_size=(3, 3), stride=(1, 1), padding=(1, 1), groups=4096)
              )
              (act): GELU(approximate='none')
              (fc2): Conv2d(4096, 512, kernel_size=(1, 1), stride=(1, 1))
              (drop): Dropout(p=0.0, inplace=False)
            )
          )
          (reduction): Conv2d(512, 704, kernel_size=(1, 1), stride=(1, 1))
        )
      )
    )
  )
)
| module                           | #parameters or shape   | #flops     |
|:---------------------------------|:-----------------------|:-----------|
| module                           | 48.568M                | 0.164T     |
|  enc.enc                         |  0.113M                |  9.7G      |
|   enc.enc.0.conv                 |   1.92K                |   0.865G   |
…
